mlp_model.pth (torch, 4267 bytes, 4 tensors)

layers.0.weight f8 [32, 7]
00000000: 9607 c277 158c b9bf 4691 6414 dbfe 9c3f
00000010: 5634 24bb 778f db3f f941 1bc0 bb9a ce3f
00000020: 858e 413c dfd3 b23f 0197 99ab 8f7f ac3f
00000030: 6a51 8ba7 b6c4 b13f f7f4 7694 043d a0bf
00000040: d86f 649a 4644 e2bf 6349 de6c 962b debf
00000050: 4cc9 4532 306e bcbf acb9 b131 7390 b33f
00000060: f27f 3187 ff38 70bf 8d80 80c5 75d9 903f
00000070: 0c73 b61e 2f65 d23f 7b5f c1c7 d534 a3bf
00000080: 34fd db5e 1237 d23f 40a8 5170 c543 aabf
00000090: b8e0 5652 eb03 c73f 4b8a e7db ad31 dc3f
000000a0: a8b7 5177 964d c63f ce83 a1a3 e756 97bf
000000b0: cc6e b98b 6551 ebbf 2f6e 4e81 1c07 d5bf
000000c0: 56a3 fcec ded2 c4bf 1797 1063 6adf c93f
000000d0: fa10 ddac 5bf6 b83f de00 ec1d 6852 e0bf
000000e0: d2cc 499d fec2 ce3f d61f c87b 4cdb 89bf
000000f0: 774a e529 0c12 a6bf 959f c44b b415 b23f
00000100: 46a7 728c 0541 c03f b7d6 a754 3ee3 d4bf
00000110: 042f 4d4d 6e4f bc3f 32af b26e 5407 ab3f
00000120: 0904 72f2 98ff b53f 9fb3 66c0 cc6a dbbf
00000130: a06f 1118 3bba 8d3f 398c 3aac 7025 b3bf
00000140: b649 73d5 3521 b7bf 4fb0 d609 e892 a0bf
00000150: 4b69 a6b2 96de d6bf 638c 254a a3c8 c63f
00000160: c2d4 90cb ca84 a1bf c786 3553 a906 d7bf
00000170: 3013 dd27 21b1 93bf 104c 5da8 168b c33f
00000180: 5a80 c7f4 c518 d7bf c605 2c12 9ab6 dabf
00000190: 6819 dedf f2c0 c03f c6cb ce1d b2aa d33f
000001a0: ea68 f46f 9ac7 c5bf 3f50 c1df e162 c93f
000001b0: 9501 405e 72a1 dd3f 3ada c9ed 62d7 d3bf
000001c0: d134 e4b9 10a2 ba3f cfb0 1c62 2a70 e0bf
000001d0: 7177 1286 4be6 9a3f 7024 f938 abef b5bf
000001e0: 8138 2d5e ea61 cabf 7631 8420 6931 573f
000001f0: 8e3a 8791 d8e4 d5bf 8873 0017 ae94 b63f
00000200: 14dd 4b51 69d4 e7bf 1b68 53e3 e184 e5bf
00000210: d7b7 e685 e624 c8bf 66d6 9bd5 7108 e7bf
00000220: c653 c673 bec7 e8bf 823c 5114 cb70 b3bf
00000230: 4f1b 4e73 774d a93f c4a0 e10b 7406 dfbf
00000240: 05ba ff71 a756 dcbf 02a8 fa47 a5e4 e1bf
00000250: 7986 04d9 53f0 813f 9070 99c4 6613 92bf
00000260: fdde 3a5e ff72 be3f 2494 0cfc 2f0d d53f
00000270: 5177 276f 2661 a3bf 5047 0f63 b9b1 bcbf
00000280: d518 3d68 8566 d23f 9a43 1ec2 7c60 ac3f
00000290: b95b 1492 470c d33f 3ca2 8c96 69c6 86bf
000002a0: 9368 cd99 85e8 a83f c9bc 29a7 47ea cc3f
000002b0: 0270 c32f bb37 b23f 84b4 ccd6 5dca 5a3f
000002c0: 252b 3664 b27a debf 5cd2 c664 258d d5bf
000002d0: e66a 0b38 e2cc c3bf b06b 4cd7 aacf d2bf
000002e0: c0ca e17a ffde c63f 5efa cafd 39a7 ca3f
000002f0: c17c ef89 5cac c6bf efec 1887 4f7d a3bf
00000300: 5a46 9d34 317d ddbf cb03 1d38 6e5e cb3f
00000310: bcbf a65d 03b0 b63f db41 ae96 f8c5 b93f
00000320: 034f 4817 37e7 dfbf ef18 10e7 3f6a b3bf
00000330: 14c9 fd99 ea71 d7bf 9a41 3c4f 9a82 b43f
00000340: 48f1 3801 415b c83f 0973 40d3 be69 c53f
00000350: 81fa 5e58 9c6e b43f 124f c8c8 3283 c73f
00000360: 65ec 0dc7 e460 83bf 08f2 28f1 5fe7 d73f
00000370: edc0 ca01 3499 bf3f aad6 2e00 ea41 d23f
00000380: 878b fc83 51d9 803f cf3b dcbf 08c2 ca3f
00000390: 99e6 71fe fa1d ddbf a1e0 4a8d 1171 e4bf
000003a0: 03bf eddf 72a3 c83f 734b 133e 2037 c33f
000003b0: a957 a5f3 85c2 c13f b8ed a6c5 1a9f b43f
000003c0: ab75 0b05 d1df 96bf eb51 4061 2ab9 e8bf
000003d0: 86db 891c 653c d1bf 0f57 2e51 05dc cfbf
000003e0: 86d9 10b6 55fc c23f 7b98 cd60 10f2 943f
000003f0: 7000 bb56 bd13 57bf 6959 e73c 324b bd3f
00000400: 721d 11a4 d047 d4bf a860 02b6 a7ed c0bf
00000410: 84c0 abef 5568 d4bf fd0e cd5e b6f2 abbf
00000420: 0fdb 1436 eb94 bdbf b1af d4a4 6231 be3f
00000430: de8f 4c7d 757a e9bf 9f44 eed1 de4c dfbf
00000440: 658a 2bf4 57d5 b7bf ad14 cd6a 8530 a13f
00000450: 7f16 a3eb 9267 a33f b1c6 9da0 ac06 d9bf
00000460: 6ab7 01da 7407 c13f 8f8f bf3a 81a3 a1bf
00000470: d2a8 94d2 0b12 da3f 3458 4825 9720 a2bf
00000480: 6e7f 32b2 4e16 9d3f f892 6ee2 58db c13f
00000490: 4cee c6a4 6f5f c03f 80dc 9c03 053b ba3f
000004a0: 4e9a eecd 1f7c b93f 356d e9de b32e dc3f
000004b0: e5af 8f30 fe39 bfbf c448 e109 1bdf c43f
000004c0: 2227 6954 3919 e03f 3231 12a8 8780 b83f
000004d0: 47a3 f976 5a2b b93f 32a6 d1f2 e6b0 f1bf
000004e0: 85bb 1951 a133 a2bf 45fe c806 fc6b e0bf
000004f0: af97 4051 4d72 e1bf a446 68af bea6 cd3f
00000500: 1410 fae9 4c3d cb3f 481c e1be fbb7 a7bf
00000510: a368 f3fc 7425 d13f fc1e 3026 822b bcbf
00000520: 8622 1b4c 33eb d13f b0d8 4bb6 c72e c93f
00000530: 6957 eb6c 4af5 d53f 648d f290 95dc b23f
00000540: 5575 f8b2 f151 babf 10b2 b9a7 84cd e8bf
00000550: 6441 2108 e9fa bebf 0724 90a1 df29 d7bf
00000560: 44d5 7eff 6e9c d1bf 3dbd 968a 9231 c4bf
00000570: de1b 1b99 ea37 d4bf 3650 48e5 ff34 c53f
00000580: 9366 f146 3781 cb3f 2be3 44e3 068c 973f
00000590: b743 af24 21bd b03f 4699 1000 c337 d43f
000005a0: a3de 0935 c9a4 c43f bbfa 4f45 c097 b2bf
000005b0: 2a14 de4b bc9a 84bf 6885 f218 4b4c bc3f
000005c0: 9180 82d1 2d28 dcbf f34c c756 ce6a cebf
000005d0: d76d b741 877f e2bf 4b85 204f 8723 d13f
000005e0: 4c05 e672 4b6c 8cbf 4968 47b7 6c9f 923f
000005f0: 6a25 0258 e658 c53f 77dd b0ef 5169 e3bf
00000600: f6a0 16e5 d522 e1bf f1b6 0858 b7e2 c7bf
00000610: 5fc1 9674 ddce c83f bf3d 065e eefe b03f
00000620: f0ab 2555 d7a6 62bf 5d08 a636 c362 c43f
00000630: 0652 c4f0 4f5a b5bf fc38 ed3d ef02 763f
00000640: 0adf b917 b5b0 e4bf eb25 bdba bd56 d6bf
00000650: c797 7165 9842 dabf 60d5 9d8d 6235 a33f
00000660: dd01 48ac 8a23 f3bf 905c 41de 33c3 d6bf
00000670: 8e25 943c d759 b3bf cb06 c4df dfc7 a9bf
00000680: a093 017d 0fe9 7cbf f6e3 182b ed18 a7bf
00000690: 5548 b322 b21b aebf 153d 632c 3959 f1bf
000006a0: a124 11e1 1b4f d1bf 43d0 b86b d806 68bf
000006b0: 1d95 6966 2d09 e2bf 18b3 9323 0dd0 d8bf
000006c0: 3667 22a7 44c7 c1bf 7bda 501f f9c4 c53f
000006d0: 2a27 ffd7 4eac ce3f ffc3 978d 433b e13f
000006e0: 9aca 3fa2 7726 c13f 5410 6e2d 464a 84bf
000006f0: 61c3 9c32 d1ea c33f 98ef 47c4 d0d9 c23f
-0.0997937600496058 0.028315947646789817 0.4306315734436955 0.23909708862494464 0.07354541035743452 0.055660714814434804 0.06940785971102562 -0.031715529559258764
-0.5708344474292018 -0.4714103758971275 -0.11105633952482669 0.07642288172949091 -0.003960607678067151 0.01645454423862751 0.28742578505789207 -0.03751247466487847
0.28461131347281143 -0.05129830356675358 0.1798071052596748 0.4405321738724168 0.1742427904713939 -0.022792453157652486 -0.8536861161223555 -0.3285590422399051
-0.16268526622413998 0.20213060223721221 0.09750912637997891 -0.5100594124233131 0.24032576255885957 -0.012625310447233955 -0.04310644160672877 0.07064368104749826
0.12698430402570632 -0.3263698412623443 0.11058701884502048 0.052790297043740955 0.08593135756565586 -0.42839354314019745 0.014515363380432522 -0.07479004101564692
-0.09035049878301646 -0.03237080688572346 -0.3573357338551843 0.17799798126643215 -0.0342162488454192 -0.35978158117187004 -0.019230382974700422 0.15268214436454786
-0.360887040178573 -0.4173951318226411 0.13088832789453453 0.30729344283025417 -0.17015390841044759 0.19833014894050113 0.4629789276514427 -0.31002114507228706
0.10403542078366292 -0.5136920849086212 0.026269130762208662 -0.08568830624530377 -0.2061131439062969 0.0014155890112902115 -0.3420926495718185 0.08820617734495617
-0.7446791255778487 -0.6724709930379079 -0.18862611330172172 -0.7197808429761607 -0.7743828068947713 -0.07593983884838632 0.0494191482785512 -0.48476887855805395
-0.442788945509989 -0.5591608434526736 0.008759169636110219 -0.017652135610078334 0.11894222307716613 0.3289298974435175 -0.0378505716978298 -0.11208685558747544
0.28750739268833786 0.055423639961311014 0.29762448564127514 -0.011120629221822324 0.04864900114508077 0.22589965498216305 0.07116289058780015 0.0016351620099144546
-0.4762388208989015 -0.3367398723742434 -0.154690053334739 -0.29392500901456753 0.17868035793397574 0.2082283486578999 -0.17713505492335993 -0.03806541942727814
-0.4607661260425623 0.21381929149541032 0.08862324749384148 0.10067704848029939 -0.4984872557990771 -0.07583999053176503 -0.3663279060193798 0.080117840141844
0.1902848487824349 0.16728959383990397 0.07981278569693907 0.1836913566954697 -0.009462153744371269 0.37349699545646375 0.1234314445853248 0.28527307527415735
0.008227001991661499 0.20904645317247492 -0.45495486114632794 -0.6388023147219607 0.19248805936830857 0.15011981040023734 0.13874887844820918 0.08055274320115913
-0.022338167126567814 -0.7726032161177135 -0.26931121623004406 -0.24890200103680413 0.14832564725811553 0.020454650791542833 -0.0014085148822431635 0.11442865359217581
-0.31688323995736944 -0.13225265872165903 -0.31886814504014915 -0.054586123535527144 -0.11555357046459512 0.1179410602969131 -0.7961986014602151 -0.48906679631279276
-0.09309911452468496 0.03357331207966161 0.03789958120755176 -0.39103236851870365 0.13304005284174575 -0.034450567647382184 0.40735145153543073 -0.03540489511594594
0.028405408502862377 0.1395064454674395 0.12791247888331936 0.10246306741906785 0.09955023553502793 0.44035050171597173 -0.12197865186288899 0.1630586431734341
0.5030790947577979 0.0957112107591385 0.0983177700487775 -1.105688999663823 -0.03555015673634102 -0.5131816990396564 -0.5452028834304111 0.23165114941416676
0.2128082411255724 -0.0463255568034176 0.2679111929152304 -0.11003888542483858 0.2799804919455159 0.19674011613068876 0.34309635769510877 0.07367834843403426
-0.10281286830327947 -0.7750876689802357 -0.12101608704074845 -0.3619307592167051 -0.2751729483673737 -0.1577628304198501 -0.3159128661322351 0.1656799191993074
0.21488085712444568 0.022995097752956866 0.0653858866273954 0.3159034252770606 0.16127886857770077 -0.07262803737828964 -0.010060759606640064 0.11053914412561527
-0.43995233020724195 -0.23763446080429382 -0.5780674251104142 0.26779349066972163 -0.013878430789875516 0.018186281858881412 0.16677550599369378 -0.6066064530813681
-0.5355023836500823 -0.18660632895028287 0.19381302063767245 0.06638994021908838 -0.0022768216814958928 0.15926399391543358 -0.0834093058404691 0.005373892344165517
-0.6465707267188645 -0.3490442584630659 -0.41031465441335196 0.037516670024084986 -1.1961771707284392 -0.35566422180767976 -0.07558961132976647 -0.05035304647937052
-0.0070582013141561595 -0.0451120486363336 -0.058805052505377965 -1.08428304041792 -0.2704534242553312 -0.0029329516380816336 -0.563620281242638 -0.3876984450751464
-0.13889368210657843 0.1700736430081696 0.2396334223433823 0.5384843602643058 0.133986429427371 -0.009907291661655084 0.15560355159098108 0.14727220138581454

layers.0.bias f8 [32]
00000000: e9d2 49d5 2999 9ebf 5ff8 076d 6fe6 df3f
00000010: 3aed 70a5 7060 d7bf f855 e1ff e17e c4bf
00000020: 4521 801a 2554 e3bf 0d5a b08f 6bfd e33f
00000030: d2ab 74eb fa22 c83f 1c1a 082f 3f4b 833f
00000040: f46a 3a63 5603 e03f 0fb1 50d6 dde4 d03f
00000050: 8f64 e277 c8f4 de3f 901d 07fc bac1 d9bf
00000060: a86a 3c70 da7b db3f d3b6 f8bd ca7c e3bf
00000070: 9b57 44dd 13aa e03f f14f 56d3 ffa8 c43f
00000080: aa74 7389 a870 b63f b17e 7065 4bd9 e83f
00000090: e197 b331 603c e43f d26b c876 84f8 de3f
000000a0: c0d6 5bd7 44b8 d0bf 1986 3123 9296 bbbf
000000b0: e586 844e b6a4 d53f 9753 1dd7 fb36 dabf
000000c0: d7c5 042d e620 df3f 6980 57fd cd61 c1bf
000000d0: 197b d0e2 0089 c53f fbaa 29a1 eea0 d83f
000000e0: d00e c6a8 0395 e13f 9771 c2ce e6ce e13f
000000f0: 80c9 1568 cc39 d63f b0bb 40f0 4387 c6bf
-0.02988114704426695 0.4984396519429363 -0.365261231959909 -0.16012215608741065 -0.6040215985858955 0.624685078279812 0.18856750962126384 0.009420865652839665
0.5004074037600206 0.26396890572756687 0.4836903734918189 -0.40244936573113765 0.4294344039969169 -0.6089833937055239 0.5207614251728389 0.16140744990536818
0.08765652995812681 0.7765252095450333 0.6323700876935129 0.4839183006276332 -0.2612468817818403 -0.10776627883162639 0.3381782309316875 -0.4096059418418973
0.4863830032000726 -0.1357972609539531 0.1682435138218004 0.3848225187163476 0.5494402214394203 0.5565065420410517 0.3472777382331955 -0.17600297194573278

layers.3.weight f8 [2, 32]
00000000: a2f5 b917 2f58 c6bf 6a5f a082 5aec ca3f
00000010: dbc2 95f5 467a 903f 3531 cf08 8373 953f
00000020: c094 8e52 c137 cabf 0e0c 37ff 43d9 c13f
00000030: 5b7f c157 38b9 7dbf b0b3 48a9 ca72 bdbf
00000040: 2af4 6a03 47d8 b73f 1f49 5f65 2f6a d83f
00000050: c784 e38b 9399 bf3f c1f4 3534 f554 ccbf
00000060: 3d57 2cf6 78aa b63f 5404 8622 e440 b2bf
00000070: e4fb 3366 fcbd d33f 914b 16e0 39a8 afbf
00000080: 921e 0807 10c5 b63f 2aef 9c6e 0a2a da3f
00000090: 409b 460b 93c7 d23f 2255 e7cf 3d06 ba3f
000000a0: dcea 1eda 9726 c7bf 97f8 2fc6 20d6 62bf
000000b0: 26e8 f7e2 2925 bb3f 9c2c fc08 08d2 713f
000000c0: fd28 38f8 0cc0 d63f be80 77bf c4ac babf
000000d0: d36f f457 051f d23f 3786 a975 f3e9 ce3f
000000e0: 68cb d4ce bba0 d63f eb3b 0f17 7e8b d63f
000000f0: 9cbb 9a1d 63a9 df3f 37ff aea4 8bbf 803f
00000100: 2516 07a7 53b9 a9bf 7cd1 e006 99bc cfbf
00000110: e456 3bd5 37ff c43f fa82 4c75 da3c c6bf
00000120: b769 5b2c cc35 c93f f3ea 7097 5f09 d3bf
00000130: 679f 8a8b efff 91bf 4af0 77ca b0b0 af3f
00000140: d2a8 40e4 000f 94bf fa75 39a5 6186 e0bf
00000150: d829 dbf3 28e8 d4bf e5fa 1342 ea7c 91bf
00000160: 2c1f 8bb8 e0b8 cdbf f6fc 69bc 034e c63f
00000170: 3c70 f91f 1773 cbbf 52a1 9f53 5ead 933f
00000180: 9a1e ac67 80f1 d3bf 5c09 27ea 812e bfbf
00000190: bfe1 fd7a cc17 d5bf 92f1 7946 2234 cebf
000001a0: f317 fa18 9bc0 a93f 39cc 483a bdb9 c43f
000001b0: 1fe4 772d 317e babf d9bd 47f1 9156 c53f
000001c0: 9dea e461 1c27 c2bf 9cfd b8b6 0f37 ae3f
000001d0: 5ca8 8fa6 faf8 debf 83f4 f6c3 740d d4bf
000001e0: 39a6 2681 5a69 cabf fdfa d48f 7482 c4bf
000001f0: 2f5e b66a 5be1 d3bf 2536 34fa 37f1 bf3f
-0.17456616076007686 0.21033793810124318 0.016091450442618487 0.020948455250434612 -0.2048265126333373 0.13944292031928324 -0.007256717766807553 -0.1150328315058704
0.09314388116304487 0.3814810266459449 0.12343713917973097 -0.2213427071509724 0.08853870401466409 -0.07130266039713834 0.3084708211972027 -0.06183033810079686
0.08894443675682798 0.40881596376469764 0.293431054126291 0.10165773702404526 -0.18086527014187126 -0.002299369823503271 0.1060358218309437 0.004350692164517469
0.355471842195257 -0.10419873880846617 0.28314336385096545 0.24151461835121932 0.35356040190088445 0.3522639489355572 0.49471357241685054 0.008177844012493203
-0.05024205602562074 -0.2479430469117111 0.16403863822659226 -0.17373209693416652 0.19695427099106919 -0.29744710721176587 -0.017577879802643716 0.06189491721667702
-0.01958848374503292 -0.516403982833878 -0.3266699201018617 -0.01707807567890542 -0.23220452319059726 0.17425581645873195 -0.2144497781872604 0.019216035703636898
-0.3116150867867674 -0.12180339781392518 -0.3295775605288575 -0.23596599999644902 0.0502975910176672 0.1619183096496231 -0.10348803863588828 0.1667044094206023
-0.1418185689925239 0.05901383500576715 -0.4839464785169463 -0.31332129609274534 -0.2063401346797933 -0.1602311804108111 -0.3106297056305917 0.12477445467467214

layers.3.bias f8 [2]
00000000: 9ac5 8f0e 3d61 d43f 5a3f 471e 766a c6bf
0.3184349672511303 -0.175123944076854
